abc_method1.pth (torch, 9776 bytes, 2 tensors)

weight f4 [64, 3, 3, 3]
00000000: 82ec 2cbe f081 0bbe 32a7 8c3d bc4d 553d
00000010: 4308 373e 7859 d3bc 63f4 cdbd 2ff3 403e
00000020: 2369 dabd e0d0 a5bb cd13 2cbe f878 cabd
00000030: a092 65bd 031e f3bd 68b0 01be b579 133e
00000040: cfa0 3f3e 5009 42bd 0c64 553d bacb 8f3d
00000050: fe69 8b3d 64cd 793d f133 393e 8883 2b3d
00000060: 68d2 1ebe 8015 aabc 20b2 e53b e522 f3bd
00000070: 9dad 323e 6f83 ecbd a3ae 1a3e 90a3 41bc
00000080: d436 d5bd c03f 81bb ca9c 07be 45fc 103e
00000090: 0980 263e 311f 22be c330 38be 46bd 01be
000000a0: b468 94bd 2a4d d13d 98c6 293d 22d0 ab3d
000000b0: 8201 8d3d d4ba 213d 98b0 28bd c13e febd
000000c0: 8ce3 283d 70f9 02be 56f9 d53d 08d4 f23c
000000d0: 2824 f5bc f15a 403e 28c6 14be 849a 25bd
000000e0: 03f1 8ebd e05f 0dbd 3b49 263e 6a31 eebd
000000f0: e272 ef3d 703c 373d 82a5 9e3d 126f b03d
00000100: e8fa a33c 4bd2 043e b857 54bd 8e8d e23d
00000110: a904 0cbe a0f8 9abd 4615 e43d aeaf 8e3d
00000120: c1de 093e 016c 303e 0d19 34be 4c46 28bd
00000130: 3246 db3d 04d2 1f3d ffd3 dcbd 8825 edbc
00000140: 90b1 49bc 807f 7dbc a8f0 ab3c 74f9 193d
00000150: 0c5f 5b3d 90b1 eabc 7e56 c4bd c6ad 86bd
00000160: 50b1 4dbc 44f6 6e3d cca4 6a3d 5989 3b3e
00000170: 725a bebd 022a f93d 1084 18bc e0ff 3f3d
00000180: a2da be3d d857 9bbc a850 12be b6e6 f93d
00000190: a480 dabd 0204 f3bd b5fb d9bd 14a8 13bd
000001a0: c8f1 ecbc 4035 073b c882 6bbd 1b82 01be
000001b0: 0066 5dbc 4d75 183e fcae 34be b758 2e3e
000001c0: a36a 19be 1354 0c3e ff2c 3e3e a86b f0bc
000001d0: 6f3f 1f3e 4115 37be 85d6 24be 93bb 073e
000001e0: 4ce5 31bd dd38 1ebe a55c 103e 68d6 1f3d
000001f0: eb3a 12be 0ac0 36be 4e7a b53d d153 333e
00000200: ec90 a7bd 01df e7bd 46d7 dc3d 4016 39bc
00000210: 26cf 863d 3602 ec3d 9260 08be a7f7 063e
00000220: d065 023d cebf 3fbe 6d10 3a3e bae4 e8bd
00000230: c0d7 c33b b165 153e 10d0 ea3c c4eb 85bd
00000240: 3d12 b3bd a1e4 8dbd 8638 e83d 6cff 7b3d
00000250: f289 15be 42da b2bd d057 5cbc d061 8d3c
00000260: ec83 213d 16dd 85bd 7047 27bc 22fc e83d
00000270: f2c8 d73d 6427 f1bd c75c d0bd 396a cebd
00000280: 80e5 a0ba a659 febd 3042 3f3c c84c 75bd
00000290: 68bd e83c 6096 f0bb b098 7a3c 408b ae3c
000002a0: 11a1 2dbe 0052 a23b 23c8 8fbd a060 a83c
000002b0: dbec 0bbe 8e7d e43d d890 93bc 9754 c9bd
000002c0: ac73 093d d624 c2bd 5c12 04bd 2623 19be
000002d0: 023c c53d 51a0 013e dda8 033e 51e0 213e
000002e0: 3805 bebc 986e f1bc 1f40 a4bd 7658 863d
000002f0: b091 c3bc 90ef abbc dad2 aa3d 9d3d 013e
00000300: c2ce e33d 5c33 17be ac7b 03be 42f5 db3d
00000310: f956 033e bfc1 293e baeb b23d c900 25be
00000320: 11ac 433e fa67 bf3d 819f 0c3e f8f1 01be
00000330: 9503 a2bd a86e f8bd 461e 9b3d 76cc 33be
00000340: 9b9c 17be d6cf 0fbe 2c35 303d 8ce7 663d
00000350: 745e 3dbe 2eb0 993d eae6 89bd a019 34be
00000360: dcfc 04bd 7b6a 063e d2dd 01be 00a7 7c3a
00000370: a202 ed3d 2caa 48bd db07 353e 4250 8f3d
00000380: 291c 263e 6d88 3f3e 5e92 e53d 189a 203d
00000390: 3073 8fbc 35ed fabd 3006 293c c0d0 0ebd
000003a0: 528d f23d 7098 143d 54f4 033d c89c b23c
000003b0: be96 a53d 8ebe c83d e2ac 20be 9d40 2bbe
000003c0: 6143 9bbd 2215 c73d f29d ff3d 3a00 35be
000003d0: bc28 2c3d bef3 ff3d 8a9f 1dbe 961f 94bd
000003e0: 891d 8cbd 0082 fcbd 9cf3 043d 8cfd f4bd
000003f0: c83c fcbc e3c1 2a3e 2c28 65bd 11be 33be
-0.16887096 -0.13623786 0.068678275 0.052076086 0.17874245 -0.025799498 -0.10056379 0.18842767
-0.106645845 -0.0050603 -0.16804428 -0.09886354 -0.056048036 -0.11870959 -0.1266495 0.14401896
0.18713687 -0.047372162 0.052097365 0.0702128 0.06807326 0.06098689 0.1808622 0.041873485
-0.15509951 -0.020762205 0.0070097595 -0.1187189 0.1744904 -0.115485065 0.15105681 -0.0118187815
-0.10410848 -0.003944367 -0.13243404 0.14158733 0.16259779 -0.15832211 -0.17987351 -0.12669858
-0.07246533 0.10219796 0.04144916 0.083893076 0.06885053 0.039484814 -0.041184038 -0.12414313
0.04123263 -0.12790465 0.10447948 0.02964212 -0.029924467 0.18784691 -0.14528716 -0.04043056
-0.06979563 -0.03451526 0.16238873 -0.11630519 0.11691834 0.044735372 0.07746412 0.08614935
0.020017102 0.12970845 -0.051841468 0.11062156 -0.13673653 -0.07566953 0.1113687 0.06967102
0.1346388 0.172287 -0.17587681 -0.041082665 0.10706748 0.039018646 -0.107826225 -0.02894856
-0.012310401 -0.015472293 0.020988777 0.037591413 0.05355744 -0.028649122 -0.095868096 -0.065761134
-0.012554482 0.058340326 0.05728607 0.18314113 -0.09294595 0.121662155 -0.00930883 0.04687488
0.09319045 -0.018962786 -0.1428858 0.12202208 -0.106690675 -0.11865999 -0.106437124 -0.036048964
-0.028923884 0.0020631105 -0.05749777 -0.12647288 -0.013513088 0.14888497 -0.17644876 0.1702603
-0.14982085 0.13703947 0.18571852 -0.02934821 0.15551542 -0.17879201 -0.16097458 0.13255148
-0.043431565 -0.15451379 0.14097841 0.039022833 -0.14280288 -0.17846695 0.088612184 0.17512442
-0.081819385 -0.113218315 0.10783248 -0.011296809 0.06582479 0.11523859 -0.13318089 0.1318041
0.031835377 -0.18725511 0.18170328 -0.11371751 0.005976647 0.14589573 0.028663665 -0.06539109
-0.08743713 -0.06928373 0.11338906 0.061522886 -0.14603403 -0.087330356 -0.0134486705 0.017258555
0.03943245 -0.065363094 -0.010209903 0.113762155 0.10536374 -0.11775091 -0.10173946 -0.10078854
-0.0012275428 -0.12419443 0.011673495 -0.059887677 0.028410628 -0.007342145 0.015295193 0.021306634
-0.16955973 0.004953623 -0.07020595 0.020553887 -0.13664572 0.1115676 -0.018013403 -0.09830587
0.03355758 -0.09479682 -0.03224407 -0.14954814 0.09630586 0.12658812 0.12857385 0.15808226
-0.023195848 -0.02947168 -0.08020043 0.06559841 -0.02387318 -0.020988256 0.08340998 0.1262116
0.1112342 -0.14765686 -0.12840146 0.107401386 0.12826146 0.16577815 0.087363675 -0.16113581
0.19108607 0.09346004 0.13732721 -0.1268996 -0.079108395 -0.12130481 0.075741336 -0.17558464
-0.14805834 -0.14044127 0.04301946 0.056373164 -0.18493062 0.07504307 -0.067334965 -0.175879
-0.032467708 0.13126557 -0.12682274 0.0009637922 0.11572768 -0.048990414 0.17678778 0.0699773
0.1622168 0.18704386 0.11209558 0.039209455 -0.01751098 -0.12252275 0.010316417 -0.03486705
0.11843361 0.03627819 0.03221543 0.021803275 0.080853924 0.098019704 -0.1569095 -0.16723867
-0.07581211 0.09720828 0.124812976 -0.17675868 0.042031035 0.12497662 -0.1539289 -0.07232587
-0.06841571 -0.12329483 0.032458887 -0.11962423 -0.030790702 0.16675524 -0.055946514 -0.17552973

bias f4 [64]
00000000: 40cf 663c 6233 ab3d 544b 103d 99ad 0fbe
00000010: b510 023e 68cd dabd 607e 1f3d 70fd 243d
00000020: d95f c4bd a56a 113e 8019 303b 3944 153e
00000030: 7ccb 59bd 9867 ed3c 2d66 2f3e 389c c73c
00000040: e211 a53d 1b65 dfbd cf02 153e 1b93 353e
00000050: c8ad a23c dc17 d9bd 2d98 2d3e 42e6 3bbe
00000060: b447 9abd 73e8 063e 40d7 08bd 0e1e 0cbe
00000070: 1f47 d6bd 23a9 363e 06d8 f03d 2d54 023e
00000080: 5691 803d e0d0 26be 25b7 3a3e f4ba c6bd
00000090: 76dc ea3d e0b0 bebc 5ab4 e3bd 006a ad3c
000000a0: 107d 403d e436 e0bd 9d48 39be 56a9 a3bd
000000b0: 690a 1b3e 5609 873d b40c 3dbd 2ec7 c7bd
000000c0: b847 433d 7f78 2e3e 9f4d a3bd c95d 08be
000000d0: 2f69 263e 74b9 74bd 5878 bcbc a022 c0bc
000000e0: 702d 6abd eaab c73d 0081 02bd 74e9 15be
000000f0: d8f9 c2bd 2000 063d 7113 003e 7d93 1f3e
0.014087498 0.0835941 0.03522809 -0.14031066 0.12701686 -0.106837094 0.03893888 0.04028076
-0.09588594 0.14200838 0.0026870668 0.14576806 -0.053172573 0.028980061 0.1712882 0.024366483
0.080600515 -0.10907956 0.14551853 0.17731898 0.019858256 -0.10600254 0.16952582 -0.18349555
-0.075332075 0.1317461 -0.033408403 -0.1368334 -0.10462784 0.17837958 0.11759953 0.12727423
0.06277721 -0.16290617 0.18233927 -0.09703627 0.11467831 -0.0232777 -0.11118384 0.021168709
0.04699427 -0.109479696 -0.18094106 -0.07991283 0.1514069 0.065935776 -0.046154693 -0.097547874
0.04767582 0.17038153 -0.079737894 -0.13317026 0.16251062 -0.059747174 -0.023006603 -0.02345401
-0.05717224 0.09749587 -0.031861305 -0.14639837 -0.0952031 0.032714963 0.12507416 0.15583606
